models/Mnist/server.pt (torch, 33151 bytes, 2 tensors)

weight f4 [10, 784]
0	0xbb5ecef0	-0.0033997856
1	0x3c210972	0.009828912
2	0xbca361ee	-0.019944157
3	0xbca43377	-0.020044072
4	0xbbcb2d2f	-0.0062004547
5	0x3bafb9f5	0.005362744
6	0xba65a2d3	-0.00087599194
7	0x3ca7f050	0.020500332
8	0x39f6dadb	0.00047083836
9	0x3b250b96	0.0025183908
10	0xbb371cca	-0.0027940744
11	0xbbb5693a	-0.0055362256
12	0xbccf1562	-0.02527875
13	0xbc4a0f22	-0.0123327095
14	0xbc301cd6	-0.0107490625
15	0x3a51a858	0.00079978025
16	0x3c1e2926	0.009653365
17	0x3c282345	0.010262315
18	0xbc972521	-0.018450322
19	0xbc5d2508	-0.0134975985
20	0x3c279d6c	0.010230403
21	0x3cac6cbf	0.021047948
22	0xbbdb316f	-0.0066892426
23	0x3c70aa49	0.014689037
24	0x3a33fb9f	0.00068658026
25	0xba0abea8	-0.0005292692
26	0x3ca3c181	0.01998973
27	0xbca1ab4a	-0.019734997
28	0xbc7285f8	-0.014802448
29	0xbc03490d	-0.008013022
30	0xbc072fae	-0.008251114
31	0x3ca4744e	0.02007499
32	0xbc9a530c	-0.018838428
33	0xbb1a4386	-0.0023538782
34	0xbc7b2b4b	-0.015330146
35	0xbccd19ee	-0.025036778
36	0xbc44b655	-0.012006362
37	0x3c877e71	0.016539784
38	0x3c1b6f40	0.009486973
39	0x3bbddad8	0.0057939105
40	0xbbeb647c	-0.0071836095
41	0xbbdc9360	-0.0067314357
42	0x3b057496	0.002036368
43	0xbcc76778	-0.02434133
44	0xbc9b2dfc	-0.018942825
45	0xbc0f3de6	-0.008742785
46	0x3bb7a7f9	0.0056047407
47	0x3beb2535	0.0071760663
48	0xbbda12ff	-0.0066550965
49	0x3b2850b8	0.0025682878
50	0x3c1efdfd	0.00970411
51	0x3caa1053	0.020759737
52	0x3b4a2930	0.0030847304
53	0x3b070efd	0.00206083
54	0x3c9b00dd	0.01892131
55	0xbc7480a6	-0.01492325
56	0x3c2144ca	0.009843061
57	0xbc705172	-0.014667856
58	0xbc3a9784	-0.011388663
59	0xbc424049	-0.011856147
60	0x3c0cbcf4	0.008589972
61	0x3c0ec788	0.008714564
62	0xbc1fc948	-0.009752579
63	0x3b8e4a7e	0.0043423763
64	0x3b8c722b	0.004286071
65	0xbbfb8d5a	-0.0076767625
66	0xbbdb218b	-0.0066873482
67	0xbb8b4720	-0.004250422
68	0x3bf33d1a	0.0074230554
69	0x3c813377	0.01577161
70	0xbca64230	-0.020295233
71	0xbc637cf5	-0.013884773
72	0x3b943921	0.004523412
73	0x3c3a366e	0.011365516
74	0x3c736d8d	0.014857662
75	0x3c772ce0	0.015086383
76	0x3c095c8f	0.008383884
77	0xbc9368ed	-0.017994368
78	0x3a2a64c4	0.00065000006
79	0xbc212a97	-0.009836814
80	0xbca86736	-0.020557027
81	0x3c9d2f49	0.019187586
82	0x3cb99afe	0.022656914
83	0xbca09b46	-0.01960529
84	0x3bd72870	0.0065661
85	0xbae8b4e4	-0.0017754105
86	0xbb54bb48	-0.003246026
87	0xbc1b6182	-0.009483697
88	0x3c1946bd	0.009355244
89	0xbc2fc371	-0.010727749
90	0x3c28e02b	0.010307352
91	0x3bcbd466	0.006220388
92	0x3c1b5d31	0.009482668
93	0x3beae60e	0.007168538
94	0xbcad14bc	-0.021128051
95	0xbc87f08b	-0.016594192
96	0x3c15a2ca	0.00913305
97	0xbb00e1e5	-0.0019665894
98	0xbcacd5f9	-0.021098124
99	0xbc9defdf	-0.019279419
100	0x3c2e2d91	0.010630981
101	0x3bc35438	0.0059609674
102	0xbc28ad32	-0.010295199
103	0xbc49ee91	-0.012324945
104	0xbcbef92b	-0.023312172
105	0xbafe0e99	-0.0019383013
106	0xbc825c83	-0.015913254
107	0xbc681560	-0.014165252
108	0x3b764fce	0.0037584188
109	0x39f78f7a	0.0004721841
110	0xbc0a0f94	-0.008426566
111	0x3c728838	0.014802985
112	0xbc9aa220	-0.018876135
113	0x3c9dce2c	0.01926335
114	0x3c93cfc1	0.0180434
115	0xbca7ef2b	-0.020499786
116	0xbbe80ba2	-0.007081465
117	0x3b9ad91c	0.0047255885
118	0x3b5e2e84	0.0033902237
119	0xb92e2c32	-0.00016610397
120	0xbada7ca0	-0.0016669221
121	0xbb5d01f9	-0.00337231
122	0xbc7aea04	-0.015314583
123	0x3bc4fe1e	0.0060117384
124	0xbc8cc847	-0.017185343
125	0xbc41276c	-0.011789184
126	0x3a9afc3e	0.0011824442
127	0x3b2af7c4	0.0026087621
128	0x39afecd1	0.00033555043
129	0xbc440af4	-0.011965502
130	0xbb24c0de	-0.0025139372
131	0x3becdb73	0.007228309
132	0xbca8bcd6	-0.020597856
133	0xbbce0906	-0.006287697
134	0x3c9c2d56	0.019064587
135	0xbbbda4e5	-0.005787479
136	0xbb8709f8	-0.0041210614
137	0xbc32d95a	-0.010916078
138	0xba9c4ead	-0.0011925303
139	0x3c866527	0.016405655
140	0x3c8e8e14	0.017401733
141	0x3c93bce6	0.01803441
142	0x3cb915a5	0.022593329
143	0xba0cd4e6	-0.00053723005
144	0xbc99485e	-0.018711265
145	0xbc338b80	-0.010958552
146	0x3c207c1d	0.009795216
147	0xbb822ecf	-0.003972865
148	0xbc8b2978	-0.016987547
149	0xbca26e88	-0.019828096
150	0xbcc4b40b	-0.024011632
151	0xbc932568	-0.017962173
152	0x3b2413d3	0.002503623
153	0x3c8598b4	0.016308166
154	0x3ccd9e92	0.025100026
155	0xbb1e9193	-0.0024195656
156	0x3cf7d140	0.030251145
157	0x3bcb0652	0.006195822
158	0x3c7281ef	0.014801486
159	0x3b220f4d	0.0024728358
160	0xbc110300	-0.008850813
161	0xbc33ca52	-0.01097353
162	0xbcf56d15	-0.02995924
163	0xbc997895	-0.018734256
164	0xbb9156dc	-0.0044354033
165	0x3a5580c1	0.0008144491
166	0xbc1b7d86	-0.009490376
167	0x3c073eac	0.008254688
168	0xbca131e4	-0.01967711
169	0xbac8aa54	-0.0015309551
170	0x3ca56002	0.020187382
171	0xbc51c7b2	-0.012803959
172	0x3cb16a8d	0.021657253
173	0x3c0030f8	0.007824175
174	0xbcc59df8	-0.024123177
175	0x3bff0e89	0.007783715
176	0xbc041473	-0.008061516
177	0xbc80768e	-0.015681531
178	0x3c57f3b9	0.013180667
179	0xbcd6052c	-0.026125513
180	0x3b1b0fbb	0.00236605
181	0x3b8f40a2	0.0043717185
182	0x3d006049	0.031341825
183	0x3ca36953	0.019947683
184	0x3d122b61	0.0356859
185	0x3d06bdd6	0.032895885
186	0x3c5cac59	0.013468825
187	0x3bcd578f	0.0062665413
188	0xbc87ce03	-0.016577726
189	0x3c25ae5c	0.010112371
190	0x3bf07cea	0.0073391097
191	0x3c0eb8d7	0.008711061
192	0xbcdb37a0	-0.026759923
193	0xbb3e47e4	-0.002903455
194	0xbc840ffd	-0.016120905
195	0xbc26449d	-0.010148195
196	0xbc495682	-0.0122886915
197	0x3bf28d8c	0.0074021276
198	0xbc6b18c3	-0.014349165
199	0x3aa88695	0.0012857491
200	0xbb246570	-0.0025084876
201	0x3c1c06e1	0.009523124
202	0xbcad150a	-0.021128196
203	0xbca071eb	-0.01958557
204	0xbcc7ae6d	-0.024375165
205	0x3c1e0757	0.009645305
206	0xbc9b93e3	-0.018991416
207	0x3c62fc08	0.013854034
208	0x3b58c2bc	0.0033075055
209	0x3ba98dcb	0.0051743737
210	0x3c3aa84f	0.011392667
211	0x3c32ce92	0.010913508
212	0x3c9c39cd	0.01907053
213	0x3c56e20a	0.013115415
214	0x3cae91aa	0.021309692
215	0x3cb78db6	0.02240644
216	0xbc061761	-0.008184285
217	0xbc5dd2d7	-0.013539038
218	0x3ca3035b	0.019899061
219	0xbcaa60b7	-0.02079807
220	0xbc21b935	-0.009870817
221	0x3c9060ca	0.017624278
222	0x3c1bb27c	0.009503003
223	0xbace5aaf	-0.0015743579
224	0xbcb34f21	-0.021888318
225	0x3c4a0f3a	0.012332732
226	0xbc85b26d	-0.016320432
227	0xbc35f070	-0.011104688
228	0xbc372e0c	-0.011180412
229	0xbbec3437	-0.007208373
230	0xbbbe3ceb	-0.005805602
231	0x3c501c9a	0.012702132
232	0xbb57bae6	-0.0032917797
233	0x3c486fc8	0.012233682
234	0x3c1659d8	0.009176694
235	0xbc3b01ee	-0.011414034
236	0x3c032ff6	0.00800704
237	0xbba54f00	-0.005044818
238	0x3bbe3b46	0.005805406
239	0x3cb2ab1a	0.021810103
240	0x3c8810cb	0.01660957
241	0x3d1beee0	0.038069606
242	0x3c6b29a1	0.014353187
243	0x3cc12b92	0.023580346
244	0x3d059f74	0.03262277
245	0xbbb1a2f1	-0.0054210355
246	0x3cb7bcdc	0.022428922
247	0xbc599547	-0.013280219
248	0xbb90db71	-0.0044206907
249	0xbb942824	-0.0045213867
250	0xbc5563be	-0.013024269
251	0xbb87b412	-0.004141339
252	0x3c911750	0.017711312
253	0xbba09330	-0.0049003586
254	0xbc2542ad	-0.0100866975
255	0xbc3f0c84	-0.011660699

bias f4 [10]
0	0xbc5ccaa9	-0.013476052
1	0x3c88f49f	0.016718207
2	0xbbd9bf42	-0.006645114
3	0xbd16496d	-0.036691118
4	0xbca39b25	-0.01997144
5	0x3b8c6961	0.004285023
6	0x3d14e45a	0.036350586
7	0x3c4b12aa	0.012394587
8	0x3ca2b6b6	0.019862514
9	0x3c98e90e	0.018665817
