models/Mnist/server.pt (torch, 33151 bytes, 2 tensors)

weight f4 [10, 784]
00000000: ce60 9bbb 6233 d63b 6958 88bc e68a 92bc
00000010: 716b 71bb cbe1 813b 7e84 9dba ff78 903c
00000020: 7478 003b c693 2739 f201 7a38 e3c2 a7bb
00000030: 0ec7 b3bc ee24 05bc 54ca 19bc 7fc0 263a
00000040: 35cc 083c 67d2 c73b 5da2 83bc 0157 55bc
00000050: fa9a 183c 4c2d 953c 3fc8 cabb e368 283c
00000060: 44b4 453b c4ae 00bb 0153 7d3c 378b 75bc
00000070: 1155 46bc f88b 01bc 1975 cbbb a246 883c
00000080: f07e 8dbc 9039 2f3b fba4 3fbc 4f97 b1bc
00000090: 419b 03bc 2fe0 613c 5468 123c 06c8 623b
000000a0: 2c33 17bc 72d8 faba f1bf 7b3a a690 abbc
000000b0: d3c8 85bc 2fc8 9dbb 2ee0 8f3a 76fa 563b
000000c0: 1e3e 49bb a74a 833b fe1c b63b 8ded 883c
000000d0: 3201 6aba c918 ad3a f4b1 8d3c c915 4cbc
000000e0: f023 333c 25ad 22bc ce8f d8bb c185 20bc
000000f0: 4d11 ca3b 277c d83b ba79 b8bb 39a1 853b
00000100: 4a37 bd3a 5e8b ddbb aead f8bb bbbe fdbb
00000110: 7e6a 7e3b 9d20 313c 8c87 8bbc 38fb 5bbc
00000120: 4f1c 2e3b e01c e93b 9cb8 353c 495d 273c
00000130: 6c0d 1d3c f89b 50bc 96ed b839 aff5 9bbb
00000140: 3595 81bc 3f7e 703c 57f7 aa3c 82ac 65bc
00000150: e3f7 dd3b f611 a5b9 8d07 14bb 2671 e3bb
00000160: b8aa e03b ffb1 f6bb fe2d 163c facb 633b
00000170: e628 ac3b dbcb ae3b b504 81bc d837 65bc
00000180: 7d41 e33b fa33 85bb a091 8cbc 3ee9 8abc
00000190: 54da 9a3b fe2e e83a f7b1 e2bb 6e56 4fbc
000001a0: 56db 99bc 1570 23bb 6874 4fbc 665d 13bc
000001b0: 36c8 c73b 1aec 67ba b1d6 bebb 9997 4e3c
000001c0: bbe3 92bc 736e 6d3c 28ec 813c 0024 91bc
000001d0: f975 d7bb 0cc3 c63b e352 493b b3fe cbba
000001e0: 125d c3bb dc2a 99bb 9cda 72bc 62d2 8f3a
000001f0: 1906 4ebc 02be 11bc 620d 693b 8988 fd3b
00000200: 99a5 083b ec8f 11bc 08bd 48bb 2f05 b33b
00000210: 94e0 abbc b653 03bc 404f 943c 9d8c b4bb
00000220: fe8c ccbb 1f74 6cbc 0777 80bb 2834 5f3c
00000230: bbf2 3d3c 948b 843c c265 9a3c 3ed2 31ba
00000240: 2da9 65bc c79b 15bc e448 c53b bbbb 68bb
00000250: a322 7ebc e826 87bc 497b aabc bcdd 62bc
00000260: cef4 aa3b ed07 683c bbf5 c93c 56b1 9d3b
00000270: c2a6 ec3c 7e26 663c 78f2 9a3c edc6 a93b
00000280: 0299 37bc 9886 3ebc 3935 debc 4ec8 51bc
00000290: 0f25 6fbb 81b3 2d3a 4151 f6bb 8126 c83b
000002a0: 56c5 79bc 8174 bfba 4446 833c 33c8 45bc
000002b0: d4a4 923c a76d e03b b056 a0bc 9916 853b
000002c0: 6fcc 10bc cc61 7cbc 693d 033c 3af3 cebc
000002d0: 4a67 9b3a b105 ed3b 5bb9 fa3c bab4 a33c
000002e0: 6b90 1d3d f236 153d f952 8c3c e89c ee3b
000002f0: 6453 64bc 522a fe3b ca32 243b e309 c13b
00000300: 1ca8 d4bc b6bd 8cbb b7ff 5abc cc95 ebbb
00000310: 19ed 17bc a4f1 b33b 0f30 40bc b4c9 183b
00000320: 02e2 72bb 0383 cf3b ca28 8bbc facb 85bc
00000330: 4082 ccbc 8ff0 aa3b 41c5 a8bc b0c7 083c
00000340: 6564 2db9 276b 703b fb5e 573c 4484 773c
00000350: 13f7 bc3c 4678 993c a158 d23c db17 c43c
00000360: a69b a0bb 226e 5ebc eb65 913c c9c6 79bc
00000370: e7c2 3abc 42d0 373c 63d8 073c 1ac7 58bb
00000380: 90ef 97bc 9d63 2b3c bf47 4dbc 8ddc 35bc
00000390: b322 25bc 7cab bbbb b8a8 bcbb a826 fd3b
000003a0: 0205 a2bb eec7 c33b 2ebd 9b3b 81fd f6bb
000003b0: 13ee 713b 0817 0dba 0068 403c f063 da3c
000003c0: 11d2 a63c acdd 323d 8caa ba3c e946 e03c
000003d0: e048 003d f168 90b8 a6a4 9c3c c95b e3bb
000003e0: 38ee b9bb 1cc2 85bb 4b8b 38bc aac4 f5bb
000003f0: b376 533c ddfd 50bb e45d b7bb e86d 2ebc
-0.0047417646 0.006536887 -0.01664372 -0.017888498 -0.0036837722 0.003963684 -0.0012017635 0.01763582
0.0019603046 0.00015981411 5.9606456e-05 -0.005119668 -0.021945503 -0.0081264805 -0.009386618 0.00063610816
0.008349468 0.00609808 -0.016068632 -0.013021232 0.009314293 0.018210076 -0.006188422 0.010278913
0.003016726 -0.0019635418 0.015461684 -0.014986805 -0.012105242 -0.007906906 -0.0062090275 0.016635243
-0.017272443 0.002673719 -0.011697049 -0.021678595 -0.008032621 0.01378636 0.008936007 0.0034604087
-0.009228509 -0.0019137992 0.00096034916 -0.020942997 -0.016331112 -0.0048151235 0.0010976845 0.0032803095
-0.003070719 0.004006702 0.0055576554 0.016714836 -0.000892657 0.0013206239 0.017296769 -0.012456366
0.010933861 -0.009928976 -0.0066089397 -0.009797514 0.006166613 0.006606597 -0.0056297453 0.004078057
0.0014436033 -0.0067609986 -0.0075890636 -0.007743684 0.0038820799 0.010810998 -0.017032407 -0.013426594
0.0026567166 0.007114038 0.011091378 0.010215112 0.00958572 -0.012732498 0.0003527223 -0.0047595124
-0.015818218 0.014678537 0.020869894 -0.01401818 0.006773935 -0.00031484634 -0.0022587508 -0.0069409786
0.0068562888 -0.007528543 0.009166239 0.003475903 0.005253899 0.00533436 -0.015749315 -0.013990365
0.006935297 -0.004065034 -0.017159283 -0.016956922 0.004725734 0.00177142 -0.0069181877 -0.012654884
-0.018781345 -0.0024938632 -0.012662031 -0.008994436 0.006096865 -0.00088471326 -0.005823933 0.012609386
-0.017930856 0.014491665 0.015859678 -0.017717361 -0.0065753427 0.006065732 0.003071957 -0.0015563577
-0.0059620226 -0.0046742987 -0.014822628 0.0010972733 -0.012574696 -0.008895399 0.0035560955 0.0077372235
0.0020850657 -0.008884411 -0.003063025 0.0054632644 -0.02098111 -0.008015564 0.018104196 -0.0055099265
-0.0062423935 -0.014431982 -0.003920439 0.013623275 0.011593516 0.016179837 0.01884735 -0.00067833427
-0.014017385 -0.0091313785 0.006020652 -0.0035512287 -0.015511188 -0.016498044 -0.02081074 -0.013846811
0.0052171713 0.014162046 0.024653306 0.0048124 0.02888811 0.014047263 0.018914446 0.0051811845
-0.0112059135 -0.011628769 -0.027124988 -0.012804104 -0.0036490595 0.00066261744 -0.0075170104 0.0061081056
-0.015244802 -0.0014606864 0.016024716 -0.012071657 0.017900862 0.006849009 -0.019572586 0.0040615317
-0.008837803 -0.015404176 0.008010247 -0.025262464 0.0011856344 0.0072333445 0.030605962 0.019983638
0.038467806 0.036429353 0.017129408 0.0072818883 -0.0139358975 0.00775651 0.0025054687 0.005891071
-0.025959067 -0.0042950762 -0.013366631 -0.007189488 -0.009272837 0.0054914523 -0.011730208 0.0023313584
-0.003706098 0.0063327565 -0.016987223 -0.016332615 -0.024964452 0.005216665 -0.02060187 0.00834839
-0.00016535966 0.0036684962 0.013145204 0.015107218 0.023067033 0.018734109 0.025677027 0.023937156
-0.0049013672 -0.013576062 0.017748794 -0.015245148 -0.011399007 0.011219086 0.008291337 -0.0033077658
-0.01854685 0.010460761 -0.012529313 -0.011099947 -0.010079074 -0.0057272296 -0.0057574175 0.0077255554
-0.0049444446 0.005974761 0.0047527766 -0.0075375442 0.0036915585 -0.0005382155 0.0117435455 0.026658982
0.02036384 0.043668434 0.022786401 0.027377563 0.0313195 -6.886002e-05 0.01912148 -0.006938432
-0.00567415 -0.0040819775 -0.011263679 -0.007500251 0.012906718 -0.0031889596 -0.0055959094 -0.010646321

bias f4 [10]
00000000: d305 83bc 10ec d8bb a01f 49bc 39e5 23bd
00000010: fc13 cfbc bbe7 103d 4023 223d 3a34 0d3c
00000020: 6b2a e13c e3d1 a83c
-0.015993988 -0.0066199377 -0.012275606 -0.040013526 -0.025278084 0.035377245 0.0395844 0.008618409
0.027486047 0.020607894
